Pixellib_1/Pixellib_1/mod3/matrix_of_bias0.npy (npy, 928 bytes, 1 tensors)

array f8 [100, 1]
0.0014714729990510577 9.242553469009424e-05 0.00012431849597341219 0.0008313510935790634 -0.00022005425137430328 0.0012511843182682863 -0.00010360814765159676 0.00022529116836932791
0.0009382079551509445 0.0012612439254288056 0.0019579304246012913 0.0004948055276528285 0.000621637379061332 -0.00018914389219755004 0.0018834018593156807 4.958565407870114e-05
0.001354134892519079 -0.00010069596642878282 0.000394115818320552 0.0006087416603982637 0.0012893913054314579 0.0010228587570625843 0.0018494525481143177 0.0008016559385047826
0.001791009905451039 -0.00021256040771676238 0.0008132050725134093 0.0012279799078635937 0.002090949681889729 0.0024162133426355575 0.0016587705698338118 0.0002925451935670212
0.0010747712389581863 0.001201234973595654 0.0022399246832536393 0.0009431251201540979 8.17092902395556e-06 0.0011323100093569836 4.884013802971654e-05 0.0008229836790881476
0.001098997230549475 0.0009157897935440722 0.002020991339638338 0.0021745553505146667 0.0005544525112834776 0.0020947175188890783 0.0006976325800801367 0.001526844066769507
0.0021637513836060616 0.0010582094285275258 -0.0002107840251936361 0.0004829409493012006 0.0016017551840796606 0.0018087317865558609 0.0017942304548549178 0.0021333041827145596
-0.0001366816820552162 9.246874523916684e-05 0.0012277213560157772 0.0007102369613185458 0.0006081955095451466 0.0006851665624993748 -0.0003524204143064755 0.002183668521398007
-8.380682487745091e-05 0.0013948715264722818 0.0009940819332604804 0.0017991959920092052 -0.0004386552073573659 0.00224083318047339 -0.0004516982431777344 0.0008012681011687133
0.0019114549064933282 0.0017122691106557946 0.0020915689313208852 0.0005947831101365509 -0.0002964812788507704 0.0016375067821928892 0.0022645804022566516 8.203243514300511e-05
0.001279303903296066 0.0014626035784381275 -0.00010449549837130888 -0.0002016309542339519 0.00010972369959344235 0.0016582504240575074 -0.00017577052945825356 0.0016900576563638702
0.0010745052250785017 0.0021251509986626315 0.0022326950005750034 -1.7456207757396997e-05 -0.00036798815953756103 0.002233092596222099 0.00044949745309760645 0.0021380692249200217
0.0003412894060871276 -0.00047365489837649413 0.0002302887110021402 0.0012476820705464163
00000000: 5c90 1a1a ce1b 583f f274 6198 923a 183f
00000010: d4a3 bdbf 6f4b 203f cbc5 13e1 e03d 4b3f
00000020: 6253 41a0 cbd7 2cbf 7353 9bee d87f 543f
00000030: d311 4d6c 0629 1bbf 01bf 8366 8487 2d3f
00000040: a1ee fa3d 42be 4e3f e221 5e5a 0aaa 543f
00000050: 7737 87e4 130a 603f 1f31 92c7 ba36 403f
00000060: 7ee1 441b ac5e 443f 5589 96a9 9dca 28bf
00000070: ffeb 0559 8fdb 5e3f 61e1 d719 46ff 093f
00000080: 3eb9 f944 a72f 563f 3698 d587 9765 1abf
00000090: 1914 ef8c 2ad4 393f 24b4 f5c2 7ef2 433f
000000a0: 7ccf 445f 1920 553f d09e 3d3a 2ec2 503f
000000b0: 39fc 6a8d 2a4d 5e3f e04b ee04 c744 4a3f
000000c0: ab58 203e 0a58 5d3f d15d c7ff 57dc 2bbf
000000d0: 8059 7f98 a8a5 4a3f bfc3 d762 851e 543f
000000e0: 15a2 0a10 0a21 613f 3c4a 2da9 2acb 633f
000000f0: cd12 5656 632d 5b3f 7617 fa09 182c 333f
00000100: 75c2 9bd4 ea9b 513f 2e37 4a3b 58ae 533f
00000110: 228e 5268 7659 623f ff4d 07c6 81e7 4e3f
00000120: 331d 17ef bb22 e13e fa3f 629d 408d 523f
00000130: 71ad 535d 369b 093f 0d4b 50fe aff7 4a3f
00000140: 4a7f 784a 8701 523f 4cd6 4c9b 3302 4e3f
00000150: 7024 b276 538e 603f be44 a483 5fd0 613f
00000160: 3e57 9ab3 152b 423f 9b96 9de7 f028 613f
00000170: 5f53 db8e 2adc 463f 05b0 4d55 0c04 593f
00000180: 4f85 bc2d b7b9 613f 0b72 d2b8 7356 513f
00000190: cfb6 4cfd bca0 2bbf 732d 4995 67a6 3f3f
000001a0: aebf 6f88 3f3e 5a3f 9628 b6f7 5ea2 5d3f
000001b0: 9d75 0148 8c65 5d3f 6c4a 4ff6 dc79 613f
000001c0: d187 72b5 46ea 21bf dda1 62f2 783d 183f
000001d0: d1ed a6c4 6f1d 543f a617 b942 e645 473f
000001e0: 735f 5ae9 e9ed 433f 4437 37fd 9773 463f
000001f0: 6246 6527 a218 37bf 7e89 4f1c 7ce3 613f
00000200: 4f4c c249 2ef8 15bf 2209 a7e5 83da 563f
00000210: 913e 2559 7b49 503f 962c 77fc 5f7a 5d3f
00000220: 2cec 12c5 69bf 3cbf cec6 3a27 5e5b 623f
00000230: 70b2 9e2e 3d9a 3dbf 42ba 1925 8641 4a3f
00000240: 702b ea13 3951 5f3f ca0d 43f5 c60d 5c3f
00000250: e408 0985 5622 613f e2c9 cc00 677d 433f
00000260: 86aa 8365 216e 33bf 3952 e584 33d4 5a3f
00000270: 2b13 8a58 2b8d 623f 4395 2d81 1a81 153f
00000280: 2387 481b caf5 543f d272 54a2 9af6 573f
00000290: f1ba 09fe 9264 1bbf 444c 66b5 9c6d 2abf
000002a0: 4faf 2ece 6ec3 1c3f 6e01 c1d5 342b 5b3f
000002b0: fa5c eb59 e109 27bf eb2b 3297 9db0 5b3f
000002c0: c41c 4533 cd9a 513f 21e6 39c1 c368 613f
000002d0: 1c1b 4d00 4d4a 623f dc83 7f76 dd4d f2be
000002e0: d5a1 4b1c d11d 38bf 514b 6e75 224b 623f
000002f0: e125 56dc 5075 3d3f 4544 b92c db83 613f
00000300: c6f7 6dd6 e25d 363f 6d69 514c 9c0a 3fbf
00000310: db1b fcf6 342f 2e3f c256 156c 2871 543f
