Pixellib_1/Pixellib_1/mod1/matrix_of_bias0.npy (npy, 1328 bytes, 1 tensors)

array f8 [150, 1]
000000 de 33 00 a7 13 3e 02 40 c0 4b 20 7f 65 09 e4 bf
       2.2803109213768797 -0.6261470301563961
000010 51 4b 89 e3 5d b1 d6 bf e6 28 dc 3d b7 1d e5 3f
       -0.3545756074938043 0.6598774154856784
000020 bc 20 06 ac fe 57 ba bf 22 37 e5 43 ec 1e ed bf
       -0.10290519428065442 -0.9100247694093222
000030 4d 71 cc 4c 61 a1 e0 bf 9b 58 36 fe 4c 39 e5 bf
       -0.5196997165653926 -0.6632447209438114
000040 e2 a4 24 fd b6 e5 b6 3f e4 21 02 88 21 10 f0 3f
       0.08944266968014206 1.0039382279229523
000050 da 49 f4 17 ce 40 83 3f 85 7b b9 9e 3c e6 a5 bf
       0.009400949579263452 -0.042772192359499285
000060 29 a0 6f e7 b0 51 df bf 9e fb de 9b 27 7f dd 3f
       -0.48936102486777827 0.460885908334541
000070 28 40 25 40 91 aa c9 bf 3d c4 39 df 2c 16 c4 3f
       -0.20051780349831572 0.15692673587503406
000080 72 26 aa d7 7b 63 98 bf 23 b8 7b 9a 01 0e ff bf
       -0.023817000425458486 -1.940919497919375
000090 de 35 33 04 0f 2f e0 bf 78 75 a1 62 38 96 cd bf
       -0.5057444650680585 -0.23114685836746296
0000a0 6c 3f 67 9a d0 95 c4 bf d1 6f 33 9c 7e 29 cd 3f
       -0.16082198657249636 0.22782881381033218
0000b0 01 9c e8 f2 2f a3 b8 3f a9 1f 0e b2 b5 a9 e0 3f
       0.09624004059206472 0.5207165219917346
0000c0 88 76 65 c6 9f a9 d1 bf 0f 88 cb 43 fc e6 c3 3f
       -0.2759780347313172 0.15548661527924465
0000d0 2f 81 37 d0 8c 03 f9 bf b8 d1 8f e4 85 ba c6 3f
       -1.5633667119473775 0.17756723079913939
0000e0 5d 27 c5 94 ec 54 f5 bf 47 32 81 3c 49 ac e9 bf
       -1.333233433850601 -0.8022810155612853
0000f0 46 64 f9 3d b1 50 f3 bf 34 f4 b4 4f 90 ec a5 3f
       -1.207200281225839 0.04282046292289757
000100 4b 02 5f f3 0f 97 f4 bf 94 da d0 33 c1 e6 9a 3f
       -1.286880446117851 0.02627088431128273
000110 4e b2 38 4c d3 98 e3 3f cb 88 69 5a bd 0b ee bf
       0.6124054421139336 -0.9389330640663273
000120 58 0f e5 0d 93 ef df bf 71 51 b0 bf fe 9b fb bf
       -0.4989974628153866 -1.7255847442475807
000130 05 29 28 39 f2 4d d3 3f e5 80 ee cb 57 19 ea bf
       0.3016324575588814 -0.8155936224975703
000140 c4 c2 3a 93 a7 0d e7 bf c5 7a 8b cb b6 e7 d8 3f
       -0.720416820104298 0.38914270284105285
000150 d8 44 b4 9d 22 98 ed bf 6d da 8a 44 eb a8 00 c0
       -0.9248211937102964 -2.0824799876093523
000160 65 eb 0a 00 ae aa ec 3f 5d 4f 83 a9 5b 89 d9 3f
       0.8958349228699772 0.3990086703681664
000170 8e d8 e6 e6 68 41 be bf 3d ce 20 8b 85 e1 cc bf
       -0.11818557393312032 -0.22563237470022726
000180 0e d2 74 c2 0e e0 c8 bf 12 65 83 e8 76 2c d7 3f
       -0.19433769698083875 0.3620888968121828
000190 5e 7e 3e d9 e3 99 e9 bf f5 9d 77 85 6f 7f e2 3f
       -0.8000354044961104 0.5780561072141938
0001a0 02 88 be f4 b9 20 ee bf 80 69 c4 60 09 ff e0 3f
       -0.9414949207459815 0.5311324014649443
0001b0 7d 0b 94 2b 97 8c dc bf 04 06 58 cc bc 03 eb bf
       -0.44608096366589917 -0.8442062369433079
0001c0 96 0d 30 0c 5c 83 c4 bf 57 f0 52 d6 c8 6c d7 3f
       -0.16025877566435714 0.366014680195581
0001d0 84 56 80 ea 62 4c d6 bf fe 6d fb 99 7e 68 f5 bf
       -0.34841225529212516 -1.338011361592066
0001e0 2e c9 f1 d6 30 a6 f3 bf 91 9a cb 89 1a ff c0 3f
       -1.2280739208477587 0.1327851460293528
0001f0 20 c3 94 16 08 f0 d3 3f b7 c6 11 8e 37 3d e2 bf
       0.3115253658789232 -0.5699727797311515
000200 9f 4a a0 52 1c 27 d8 bf e7 04 c0 bd 50 b4 e2 3f
       -0.377387123765553 0.5845111566597126
000210 34 55 c6 94 30 0e dd 3f b5 78 13 98 f0 2d 99 bf
       0.45399107483656853 -0.024589309007631416
000220 c3 ab 36 a9 3e 6f d8 3f e6 35 a9 a3 33 e5 f8 bf
       0.38178984188806114 -1.5559574501997928
000230 b4 33 e7 c8 5c 77 d9 3f 39 2b 79 f7 61 70 f2 bf
       0.3979103052086501 -1.1524371783186338
000240 81 bb 63 af 2c cb df bf dc 35 af 09 8a b9 f1 3f
       -0.4967757904805055 1.1077976587579235
000250 2b 40 22 0b 47 b4 50 3f 35 77 2c 29 21 b6 ee bf
       0.001019544008645577 -0.959732609193202
000260 fb 9c 87 3a 74 83 e3 bf 20 7b d5 e6 4a a4 d8 3f
       -0.6097966330679861 0.3850276235806849
000270 21 eb 01 79 e9 60 f3 3f 05 98 3a 20 37 24 e6 bf
       1.2111601569037662 -0.6919208173246721
000280 34 41 67 41 3b 4e e7 3f b8 d0 47 ad c9 79 d9 3f
       0.7282997395905455 0.3980583374207174
000290 cf 5c 63 a3 f2 48 f4 3f 14 c7 75 3a eb 14 f9 bf
       1.2678095228528041 -1.5676071437450831
0002a0 6b ab be 84 14 e7 e0 bf c8 28 15 12 6f 11 e0 bf
       -0.5282080261871277 -0.5021281579186274
0002b0 e8 bd 0b 48 03 70 e6 bf 5d 21 12 36 69 a2 d2 3f
       -0.7011734397073583 0.29116277962068243
0002c0 58 e7 5c c4 7c f8 d1 3f de f6 9d 28 80 b1 c0 bf
       0.28079146553101486 -0.13041688903097443
0002d0 d2 fc 35 6f 7c ed d0 bf 92 30 5f b5 94 cf c3 bf
       -0.26449499950827005 -0.15477236610457062
0002e0 a8 62 41 dc eb 65 f2 3f 72 b5 5c 0c 67 94 ed bf
       1.1498831371047036 -0.9243655435035818
0002f0 fe e5 f8 02 19 00 02 c0 6c 51 4d 5f 99 cb dc bf
       -2.2500477058608785 -0.44992670351827857
000300 4e 41 21 98 2c de bb bf d9 2b e8 b5 1c da e2 3f
       -0.10885885919674829 0.5891250183934701
000310 fb 49 3f f8 da dd f0 bf 0c 5c 04 87 ad 04 c4 bf
       -1.0541639039189465 -0.15639275639179606
000320 2b 0e c7 a5 07 d4 e6 bf 5c 2c 2f 76 62 4b e2 bf
       -0.7133825528948753 -0.5717022236143623
000330 2e 9d d2 a5 c9 24 db 3f 0f 6c c6 f1 3e bb e7 3f
       0.42412034219383343 0.7416071626825004
000340 0f 74 01 f0 6c 9e f2 bf c8 15 e1 4e 17 ce e1 bf
       -1.1636781096669926 -0.5564075985536698
000350 50 fa ba d2 f3 43 c4 3f e5 00 7d dd ff ea c8 bf
       0.15832374372071678 -0.19467161478860998
000360 65 94 36 3a 09 29 ed bf fe 73 cb 83 bf c9 de 3f
       -0.9112592827774618 0.4810637270982737
000370 ed 34 59 b1 a3 76 74 3f e9 4a ef f7 7e 9e e1 bf
       0.004995955872414398 -0.5505976526713684
000380 6a 76 59 a1 70 59 cc 3f 2c b2 2a 5f d6 72 ba bf
       0.22147949102775338 -0.10331477950484985
000390 f6 6d e7 0b 63 3f f7 bf 4c 8e 17 68 cc b2 f2 bf
       -1.4529753174782605 -1.1686519685835206
0003a0 fb e9 07 35 f8 ff fb bf 0d d8 64 60 92 a9 02 c0
       -1.7499925681610182 -2.332798722341073
0003b0 0b ef b7 72 86 ca e5 3f 81 22 6b 17 16 0b 03 c0
       0.6809723129840405 -2.380413229901308
0003c0 30 ac fd 27 cf ee d8 bf 57 0b 77 7b 3d 96 dc 3f
       -0.38957575707781 0.4466699319565825
0003d0 2c 72 6b 6a 1c 19 e1 bf c1 a1 51 88 ab ba de bf
       -0.5343153074750879 -0.48014343559637146
0003e0 34 d7 38 62 d2 73 f1 bf 49 df ab b0 48 0d ac bf
       -1.0907768093870347 -0.05478884846337324
0003f0 e1 c1 5b b7 85 cd e0 3f 02 8f 99 8c 6c ee e0 3f
       0.5250881749362258 0.5291044946756929
000400 e6 98 95 2f 48 82 f4 bf 1a 5c 85 7f 5f af ea 3f
       -1.281807123066352 0.8339078417437833
000410 d9 28 7c 7d ed c5 c9 bf e8 2f 3c b9 f4 ba 8b 3f
       -0.20135277392575437 0.013540183928419894
000420 52 50 a2 34 2d 50 f8 bf eb a0 3c c8 24 b3 e3 3f
       -1.5195743614213097 0.6156181250453562
000430 6c ea 09 43 2d 71 bc 3f 36 f4 48 2d 6f 34 b2 3f
       0.1111019409817488 0.07111258369055026
000440 b2 62 6e 15 82 45 de 3f fb c2 12 35 4a 36 c3 bf
       0.4729924401558875 -0.15009429542035221
000450 2e 5b f2 c4 b5 12 e5 bf 84 73 5e ca e2 0c f1 bf
       -0.6585339399924572 -1.0656459717785944
000460 e0 88 db 79 18 c1 f1 bf 17 f0 68 ff b8 3e db bf
       -1.1096424827633697 -0.4257032865750729
000470 ab 99 93 67 8b 95 db bf 8f b1 dd cc 19 1c f0 bf
       -0.43100247492693694 -1.0068605425431973
000480 ad 3e 00 b4 d8 1b e6 bf b6 b5 93 af ad 66 b7 bf
       -0.6908992305415801 -0.09141049896762507
000490 1b 76 b6 98 e4 3d d4 bf 33 8b 92 0d 91 e9 be bf
       -0.316277646192107 -0.12075144368513406
0004a0 8d 1a 9a 12 d9 7c d8 bf b8 c3 e7 b3 2e 50 e8 3f
       -0.3826201135310974 0.7597878946090679
