Pixellib_1/Pixellib_1/mod1/matrix_of_bias1.npy (npy, 472 bytes, 1 tensors)

array f8 [43, 1]
00000000: 41ca 0a1e 5491 e5bf 9245 250f 724e d73f
00000010: 61c8 cbc7 2a73 c43f f9f6 9b94 7591 d1bf
00000020: 7aa4 234a 794a 803f bb7c 0e3f 0a58 d5bf
00000030: 7708 4bbc 4158 dcbf 7b93 59e6 5dbd a83f
00000040: 8834 f2f0 feb1 dabf 2ba3 4bb8 ecdd 96bf
00000050: 31e3 500f f683 c2bf c90a adb5 a0d0 c6bf
00000060: ccb9 d4ed 63c2 ccbf 7f40 8e3a 9ae8 e0bf
00000070: a9ff d911 93d3 cebf 631a 4c25 f58a d3bf
00000080: 6226 cad7 ff93 e2bf 86ef 0218 95fd d8bf
00000090: 632a 0cca c39d ae3f c7b4 b6c4 5a71 cfbf
000000a0: 55ed 3123 e36d bf3f aa71 2839 5793 c8bf
000000b0: a52d 9d1b d090 dcbf cf23 c8de d7e6 bfbf
000000c0: 3746 fc8e be38 cfbf ad2d 3f56 d9d3 dfbf
000000d0: 4e8d b427 32e7 c4bf 4b01 b876 0765 95bf
000000e0: 58ee de24 2b25 d9bf 8683 6a84 04ee aabf
000000f0: 80cd 8527 1b44 cfbf 38a5 02e3 6a98 ae3f
00000100: 8e6d 93d7 e8e5 d8bf d005 5c58 b637 a9bf
00000110: 083d 81dc b9e8 d3bf 347b 0209 7b6a b7bf
00000120: 0b50 99df c741 d8bf 0cfa 5990 f144 c5bf
00000130: 254c 3ddd 044e c7bf f328 e1f6 76b0 d7bf
00000140: c4b8 f9ce bd0e b9bf d131 9be2 b541 d4bf
00000150: 6c4c fcbf 980c dbbf
-0.6739903055916515 0.36416293601095007 0.15976462131181093 -0.27450313103314233 0.007954547476815888 -0.33349853666181745 -0.44288676631925433 0.04831975399864682
-0.4171140053738971 -0.02233095049715243 -0.14465213535165725 -0.17824181433578293 -0.22468232262458654 -0.528393854490801 -0.24083174106271812 -0.3053562988501765
-0.5805663313523832 -0.3904774412619577 0.05979739991569912 -0.24564680676613745 0.12277049645665745 -0.1919964818088265 -0.44633867928197396 -0.12461613835343076
-0.24391920072280168 -0.4973052351239982 -0.16330553950056487 -0.020893208142298374 -0.3928935871187824 -0.052597180522986384 -0.24426593236749383 0.05975660344240413
-0.38903256466229486 -0.04925317600828871 -0.3110794690482668 -0.09146851510966486 -0.3790149386961736 -0.16616649197017386 -0.1820684509535521 -0.3701455508168145
-0.09788118651497074 -0.3165106499625639 -0.42264384029949187
