Pixellib_1/Pixellib_1/mod1/matrix_of_weights1.npy (npy, 51728 bytes, 1 tensors)

array f8 [43, 150]
0	0xbff1002f7ac5e0bf	-1.0625452800577901
1	0xbfcbec17bbbcff2f	-0.2181424776736036
2	0xbfe9bc59bff96909	-0.8042420148370023
3	0x3fc6a6dfb4170ec6	0.17696758550129327
4	0xbff1d2dadd60a257	-1.1139782569463443
5	0xbfbb0d8699e564eb	-0.1056751371119337
6	0xbfface07b130a942	-1.6753003045547108
7	0x3fde2dc069147b67	0.47154245626182106
8	0x3fd04d063bf904de	0.2547011933966824
9	0xbfdf20e39276d043	-0.486382382422793
10	0x3fd22c610d0e265b	0.2839586856358431
11	0xbfc0e6702bd835a6	-0.13203241482589795
12	0xbfd66b375c7005aa	-0.35029396082981157
13	0xbfdbdc4b72982a99	-0.43532072249278425
14	0x3fdb8f7b39e36ac6	0.4306324067417048
15	0xbfd957c6cf0bbe26	-0.395982458298905
16	0xbfd1e912edca79f9	-0.27985070440072907
17	0xbfd83161d113643c	-0.37801404397538696
18	0x3fdc1c786cd53161	0.43923769596292145
19	0xbfc6e2422513bc1d	-0.1787798577347254
20	0xbff2da53cd3fac7d	-1.1783025758293484
21	0xbfca12fc74335ea9	-0.20370441125736719
22	0xbff6c217facc80e9	-1.4223861500577704
23	0xbffc6b37a1268281	-1.7761760992945315
24	0xbfeb15163892d3fc	-0.8463240723564236
25	0x3fc226c69e7bacf5	0.14180834520752908
26	0x3fe2abd2cec1c709	0.5834745443555401
27	0xbf818e5fdbb85c33	-0.008572338955714276
28	0xbfd117bcfc6c9666	-0.2670738663749489
29	0xbfd0f3417c35ed0c	-0.26484715585657237
30	0xbfe38358cb6f555d	-0.6097835515344446
31	0x3fc13856ea326ba6	0.13453184543035696
32	0x3fd91d8fed9f1c76	0.3924293346903548
33	0x3fd999c9f2f2b014	0.40001152730360556
34	0xbfbef4b597b76e91	-0.12092146829621188
35	0xbfdbb3951945d6c8	-0.43283584087417326
36	0xbfe60ef10c24c52f	-0.6893239247494075
37	0x3fb6656200333475	0.08748447899707108
38	0xbfcd33a54b17cce9	-0.22813860098504016
39	0x3fd8fd0c176911ea	0.3904447773568608
40	0xbfc114998a2e5f6f	-0.13344115492941053
41	0x3fd18236f31f9979	0.27357267134211544
42	0xbfb5af0b719c0e3d	-0.08470222018882452
43	0xbfeaec9665a1ab20	-0.8413803086271834
44	0xbfd4bf629b0042a7	-0.3241812242204482
45	0xbfcedf0b7d514a4b	-0.241181789579587
46	0xbfcb45eae956d557	-0.21307121652140878
47	0xbfe6dcd5ab191013	-0.7144573537593736
48	0xbfc88a9141d21598	-0.19172874177835975
49	0x3fc72ec5cb6a1851	0.18111488754601848
50	0xbff0b4ad5c0fe959	-1.0441106411149887
51	0xbfb400f69d879292	-0.0781396994203283
52	0xbfe2311cca2b01e4	-0.5684951733201697
53	0x3fc0591f105ae0f8	0.12771976755698922
54	0x3fe0c96e44ff2cd8	0.5245887134164162
55	0xbfe09f043dfa079e	-0.5194112024766928
56	0xbff0e2501113d421	-1.055252138813792
57	0x3fbe0ec7b01f32f7	0.11741302537775399
58	0xbfe4b56cb999f6e0	-0.6471465706851767
59	0xbfe6c8f38f9d7067	-0.7120302014332197
60	0xbf956cbac8df105f	-0.02092258311292061
61	0x3fc2e0e3c77638dd	0.147488090890369
62	0xbfafaba50fa5d5d3	-0.06185642066968069
63	0xbfb04db49de8c53d	-0.06368569235998663
64	0xbfda3338806045e3	-0.40937626396870835
65	0xbfc1d62696e7bd60	-0.13934786194247817
66	0xbfd4389602273804	-0.3159537335421876
67	0x3f9874f75dae4a5c	0.02388369092256891
68	0xbfef7ee00c719887	-0.9842376940766976
69	0x3fdc69b17fa4dc12	0.44395101037247386
70	0x3fc287a49b16fbb8	0.1447644955896672
71	0x3f5e6a7d50d8324c	0.0018564437663172338
72	0xbfed18c97447410e	-0.9092757483540781
73	0xbfbc84ad8752c9b4	-0.1113995032672282
74	0x3fcb6213617c2750	0.21393053302773035
75	0xbfe9c4b5b854174d	-0.8052624321141849
76	0x3fe51d1b7f60f1a4	0.6598031509270652
77	0x3fefb7b7d9443a96	0.9911765330778788
78	0x3fce00234b624b6f	0.23437920742852777
79	0xbff72b22b7a5fadc	-1.4480311559452081
80	0x3fe9643cd827a166	0.793486044099194
81	0x3fc1c722b5a0ebbf	0.1388896357401261
82	0xbfdb5cb3916909b5	-0.4275330467245582
83	0xbfdcfee7319dd12f	-0.45305805058821397
84	0x3fcb61d9c3c8f1fe	0.21392366466342588
85	0xbfe6235aa7a5b3a9	-0.6918156885491175
86	0x3fe7ebb747785031	0.7475239177606509
87	0x3fd1854368570614	0.2737587470001881
88	0xbfb23a5d723e2e13	-0.07120307959683485
89	0xbfcc1be9eef0cb54	-0.2196018616392289
90	0x3fe168d4aea44003	0.5440467272728714
91	0xbff3be2b47b2c367	-1.233927993842565
92	0xbfe3cef2c2aa743c	-0.6190122415606605
93	0x3fc59fe5486ab7e2	0.16894212757091426
94	0xbf80e132ae6442e7	-0.008242031046877553
95	0x3ff2670a39f2018d	1.1501562369813627
96	0x3fe28217ade69d27	0.5783804317951863
97	0x3fcf1d6132de7a35	0.24308409675445977
98	0x3fd3d23a6dee9f83	0.3097063134723543
99	0xbfa9770fe15b6d00	-0.04973649621907761
100	0x3feb098af021dd9c	0.844914883621573
101	0x3fe569906456ded8	0.6691362342598621
102	0xbff72d8fe976581c	-1.44862357326702
103	0x3fd3ce07732388d2	0.3094500183489234
104	0xbfe10691f6f10bdc	-0.532052023227489
105	0x3fd21c574ae00039	0.2829797965241628
106	0x3fb39f145168f9c7	0.07664610850858998
107	0xbfdf07470dd3ac91	-0.4848191866901255
108	0x3fbaa2f77911d7b4	0.10404917436412014
109	0x3fdcb28be37f07aa	0.4483976098673518
110	0x3fed531211732c27	0.9163904515093052
111	0xbfe2d16ddef8b128	-0.5880650858794398
112	0xbfe0a0f92fb2bd95	-0.5196500712972233
113	0x3fd3311797ba7939	0.29987134759166484
114	0xbfd3f29a8f8f2af8	-0.3116823579736514
115	0xbfccbca8dfe261e7	-0.22450743610239884
116	0x3fbd174b98fa87e6	0.11363670811490997
117	0x3fc80ee0fb856ef0	0.18795406609830634
118	0xbfd8ccdae2825fc6	-0.38750335807844427
119	0x3fd425423e133431	0.3147740942193336
120	0x3fd2fe45d037c48b	0.2967695744874354
121	0xbfb33df3b1d33658	-0.0751640614646133
122	0xbfe28d3c84d3c608	-0.5797407717020073
123	0xbfe1df19edba639b	-0.5584840434195145
124	0x3f87653b68cba73a	0.01142355359612034
125	0xbf9d2eaa7c434182	-0.028498329004663876
126	0xbfde1c5123077d36	-0.47047832890344254
127	0xbfe70e4e3790d2aa	-0.7204962811725484
128	0xbfb71786a6b4a3a6	-0.09020272798501469
129	0xbfc1421526a586c8	-0.13482918154755041
130	0xbff1043ce3dc5f74	-1.0635346318067294
131	0x3ff69ef3fe9d05d6	1.413806910117605
132	0xbfce79fa1a6082f9	-0.23809744155825976
133	0xbfddb499568dffc9	-0.4641478867779339
134	0xbfddd11e27977532	-0.4658885370862037
135	0xbfed97f560cec840	-0.9247996226097328
136	0xbfef8f7eef24e541	-0.9862665816100745
137	0xbffc846e3f91cd98	-1.7823317034898079
138	0xbfc9523310d66a5a	-0.1978210289206171
139	0x3fac1d2daa0b6aa9	0.054910113341710094
140	0x3fd61e73bce4147a	0.34560864874249086
141	0xbfa4cad52318c4ef	-0.040609989675781104
142	0xbfe41c6e22336ce8	-0.6284704845415066
143	0xbff16d9a0aa9d908	-1.08925823369424
144	0xbfe783c85a8f0d22	-0.7348367470480393
145	0x3fe13b6b8b64901d	0.5385034296527952
146	0x3ff30a6cbc6c5513	1.1900451050071907
147	0xbfc2098e5c77f845	-0.14091662898130344
148	0xbfee3d5d1f0da086	-0.9449906927593623
149	0xbfd750172f423869	-0.3642633401403886
150	0x3fe13fa27f00cdee	0.5390179138689157
151	0xbfefc3c1c56ca684	-0.9926461082406637
152	0xbfe85fb2650d8815	-0.7616817449272754
153	0xbfd84b65f6be1d43	-0.3796019467922244
154	0xbfccf38a3fdaa627	-0.22618225210071438
155	0xbfc5d69f440f7404	-0.1706122476888653
156	0xbff18f12de971314	-1.0974301047255652
157	0xbff27aefe9f08663	-1.1550139559043593
158	0xbfb33a6f1df9130f	-0.07511038285981562
159	0xbfd525e76985c3f5	-0.3304384737485287
160	0xbf96d393da998d90	-0.022291479317926355
161	0xbff168e3b39f5886	-1.0881077782155741
162	0xbf71817755d8aa59	-0.004273859170590721
163	0xbfbbcc6b6b96a4c2	-0.10858794571562938
164	0x3fc2dc89c2919d7e	0.1473552894633307
165	0xbfbb815a825c88e8	-0.10744252855923586
166	0xbff02651009da2f9	-1.0093545936635435
167	0xbfcbec69639d36d9	-0.21815221179934133
168	0x3fb640e6c91d68f0	0.08692781839400587
169	0x3ff0600ee8426fd8	1.023451716674563
170	0xbfd98f32f0767333	-0.39936517222104156
171	0xbfd3850f5b3feb32	-0.3049963370428258
172	0xbfe66bfd01e3f5f2	-0.7006821667598031
173	0x3ff2835ef69a47fa	1.157072985927242
174	0x3ff6a2dd93fbe6b7	1.414762094557245
175	0xbfd50c643dc3d68c	-0.32888132125604197
176	0x3fdfd29895de5032	0.497228762012358
177	0xbfb841b1bc1bdc00	-0.0947524151086867
178	0xbfd12507dd368aa0	-0.26788517573201354
179	0x3fa16c53f3e7fec8	0.0340296015965556
180	0xbfd8e52636321e9b	-0.38898616116100876
181	0xbfb41a928d7c5144	-0.07853046373594902
182	0x3ff40e927fca50a2	1.2535576812561335
183	0xbfe694924ca67709	-0.7056361672473211
184	0xbf874d8a5ff5238f	-0.011378365567581898
185	0xbf9cfa489c3416e1	-0.02829850629225106
186	0xbff40ede0e1c7cc8	-1.253629737016853
187	0xbfd5e9b0e60cca58	-0.34238836732689526
188	0xbfcc276960b30bc1	-0.21995274755144403
189	0x3fc982677aa4be8c	0.19929212082341896
190	0xbfebc9a3f8d6cd4e	-0.8683643207681742
191	0x3fd757b75fa3f855	0.36472877826588973
192	0x3fd8fb4cae911ac1	0.3903381066087768
193	0x3fd3e8fb70dfb9dd	0.3110951044353934
194	0x3f52dfd82446af03	0.0011520014532874774
195	0xbfa6de3067f1cb65	-0.04466391819814567
196	0xbfe7d64d30d2dd3e	-0.744909854277388
197	0xbff520085b1c423d	-1.3203204688071672
198	0xbfe839952b490fb4	-0.7570291371744049
199	0x3f9774920cc0e2d0	0.02290561869469593
200	0xbff24768215e11e7	-1.1424332908073838
201	0x3fd15f14595221ea	0.2714281914018374
202	0x3fcd96a3bb714df6	0.23115965511770725
203	0xbfebe3e441ce5a82	-0.8715688023829247
204	0x3ffd876c72c405dc	1.8455624087367744
205	0xbfd36366f0c55258	-0.30294202339908827
206	0xbffae5b2d2f4dbcf	-1.681078743027445
207	0xbfe012092097bdaa	-0.5022016178681288
208	0xbfe3e9adb8a755b6	-0.6222752195850976
209	0x3fdb49b04e93bf3a	0.4263726012568331
210	0xbfbd8fc18010c826	-0.11547479034996452
211	0x3ffaee1d320d9c99	1.6831333117677671
212	0x3fd131edca850df5	0.26867241647070667
213	0xbff10293fc0924f9	-1.0631294102807358
214	0xbfd510eb94b2aa9b	-0.3291577293518146
215	0x3fd1fe338d12447e	0.28114022041797415
216	0x3fbc76e4f4a6f3b9	0.11118918393090284
217	0x3f9751b1bccf3e3b	0.02277257647420881
218	0xbfec16ebf1e252fc	-0.8777980541513837
219	0xbfdf420b552dd5a6	-0.48840602224603413
220	0x3fcc0031a64d9515	0.21875591869608316
221	0x3fdfc96d2d062c4a	0.4966690959633452
222	0xbfe2fdfc2e6dbbfc	-0.5935040385064663
223	0x3fb7111dd86da9f0	0.09010492833991868
224	0xbfba10ff250fc4a6	-0.1018218484384926
225	0xbffb2b8dd57e8cf7	-1.698133310282001
226	0x3fea9957a096bf2e	0.8312185417653148
227	0x3fc254170ee0dd28	0.14319122530444273
228	0xbf9eec668f989abb	-0.03019867183152301
229	0x3fde95f289452969	0.4779020634201943
230	0x3fe4bb81e2ca9803	0.6478890828627758
231	0x3fc5886a91db3868	0.1682255947293385
232	0xbfa9cbf7f7640152	-0.05038428206353508
233	0x3fb13649772b6f71	0.06723460349479439
234	0xbfdd7623848fb5df	-0.4603356165451639
235	0x3fe5ced3ca19e1cb	0.6814974734580174
236	0xbffcd3e91053ca10	-1.8017359388146623
237	0x3fcc453daba2e7f4	0.22086306458169214
238	0x3fa48a50b70e05d1	0.040117761941484205
239	0xbfeaa00c805674cc	-0.8320372110935295
240	0x3fdc44ddf39bb9b1	0.4417033080088926
241	0xbfd7bb2b4d1cfdf7	-0.3707988980349621
242	0xbfe5d83a0bc66f9d	-0.6826448659880843
243	0x3ff111001b270f1a	1.0666504917762212
244	0xbfe3d5939d4a18b6	-0.6198213645991675
245	0x3fd40139b5b9ed71	0.3125747942610451
246	0xbff0506ccf1c4452	-1.0196350183726008
247	0xbfaed6045930147d	-0.06022657002180496
248	0xbfe0e5d86d6b0152	-0.5280573021955581
249	0x3f88f87649fd04c0	0.01219265378279244
250	0xbff38e61d6c69d77	-1.2222612752610453
251	0x3fc2bd16ce29fdd8	0.14639554087260254
252	0x3fe13e91935cb9f0	0.5388877752464492
253	0x3fcda6cbfc204c88	0.23165273485992466
254	0x3fcb87cdb156501d	0.2150818935302831
255	0xbff02521805e3b54	-1.009065152585852
