Pixellib_1/Pixellib_1/mod5/matrix_of_bias0.npy (npy, 928 bytes, 1 tensors)

array f8 [100, 1]
0.0004161467350302703 0.002327425581374239 0.0016184436086788881 0.0014899844484293843 -0.00018494363361861655 0.0022407798834103306 -0.00037214732845021887 2.0496039246251392e-05
0.0019083935548549309 0.002521100916829166 -0.00040436759861342493 0.0008890051238290719 0.0005031541272515672 0.001114112937306626 0.0022840296164741607 2.7525700001100116e-05
0.0022213028546524166 0.0013733516132462859 0.001879895137972663 0.0010027255138878866 0.0018360496282655684 -0.0004944647590087811 0.0008918238134335886 0.0004891393335433258
0.0016987086316493838 0.0016758155534799387 0.00011960520443748714 -0.00047847479121477214 0.0017445193962161965 0.0012169913940556609 0.0010935728370971886 -0.00017056055885783004
0.0024675958170180816 -0.0002358293413848436 0.00013363110275815525 0.0017219052798750957 0.0008355680276407085 0.002371913247118961 0.0011597125793936598 0.0026710131549715368
0.0012805425034686216 0.000486809298168846 0.0017779762279531005 0.000976709536251713 0.0002975321683452746 0.0007236231502455257 0.0011357752373476768 0.0012692126534957682
0.0019026465617304718 -0.0005000700621768334 0.0019389796379885198 0.0007286968271531222 0.0013526380707681199 0.0008314638808971091 0.00227805166147395 0.0017014690107601863
0.002076227674263255 -0.0001674635214670908 0.0020018043758549464 0.0016314855294407276 0.001510621819309005 -0.0004572473148507649 0.0007869365006596681 0.0018769937314454966
0.0018112929716073212 -0.00039111721122100625 0.0014640103382643523 0.00012054086383766338 0.001575243962002296 0.0014053003878471695 0.001037957334393006 0.00016279052085898998
0.0022307207320752982 0.00030089596883238446 0.00225362687458251 0.001678470950602275 0.0009891768074948874 -0.0005491901290676965 -0.00018407234730909616 4.5501864245316056e-05
0.00137650376130704 0.00023594155467501082 0.0010817920546683161 -2.5782574528868797e-05 0.0008811995123540616 0.0009748924448274007 0.0010041421230293608 0.0009964977145214262
0.001095724603707157 -0.000170758512802302 7.073483136153391e-05 -5.1916925599959975e-05 3.071449516811362e-05 2.5008937503797184e-05 0.002549986104888063 0.00158488566922322
0.0018353668320820204 -0.000564408141943584 0.0005715950812174416 -0.0002470020253661409
00000000: 62dc 069e c845 3b3f 2a23 3018 f710 633f
00000010: 9b19 a997 3e84 5a3f a339 909e 7269 583f
00000020: 1b2b 4bb7 ad3d 28bf 2314 238a 415b 623f
00000030: 4d75 e09a 9863 38bf 24fd 9717 dd7d f53e
00000040: b1e3 fbf9 6144 5f3f 7f36 9bbf 21a7 643f
00000050: f741 929c 2980 3abf 8fb8 66f7 8321 4d3f
00000060: ae00 bd42 c37c 403f 145b 4ea8 ed40 523f
00000070: 6af0 2f10 f5b5 623f 0911 6cb3 dfdc fc3e
00000080: 4913 b0e3 6832 623f 9282 f210 4180 563f
00000090: 2bd5 cc08 dacc 5e3f 8031 7f52 bc6d 503f
000000a0: 35ea dc46 f314 5e3f 4f1e 07fc de33 40bf
000000b0: 281d 660e 2939 4d3f ccaf 6ab8 3207 403f
000000c0: d7ec 2c81 e6d4 5b3f bcc7 c33f e174 5b3f
000000d0: 4d0f 16c4 915a 1f3f 61d0 8994 795b 3fbf
000000e0: 764f 4170 0b95 5c3f b3b8 2a8f 6ef0 533f
000000f0: 9455 8de4 c6ea 513f 4387 680b 105b 26bf
00000100: 41cf ae6a ec36 643f f5f9 0b9e 1ee9 2ebf
00000110: 9157 a16e ea83 213f 15b3 49b7 3136 5c3f
00000120: 292b 18ad 4061 4b3f 3110 693a 436e 633f
00000130: a7f8 7ae6 2f00 533f 03af ba44 85e1 653f
00000140: 7735 1b0b fcfa 543f 529b d803 4ee7 3f3f
00000150: bccc 2270 5f21 5d3f b361 04e1 9d00 503f
00000160: 3ba8 bbee c27f 333f 5053 e9e1 30b6 473f
00000170: 893e 0060 c99b 523f d7e5 a8b5 76cb 543f
00000180: 6fec 8a30 472c 5f3f d275 0848 e462 40bf
00000190: 4f50 7f88 abc4 5f3f e906 4a85 c0e0 473f
000001a0: ced9 be11 6029 563f faa1 8f16 d33e 4b3f
000001b0: a4e1 4eac 6ba9 623f 1668 6870 7ae0 5b3f
000001c0: 9d68 b83e 2a02 613f ebaa 29b2 24f3 25bf
000001d0: ee21 798a 1666 603f 78c6 8a3f f2ba 5a3f
000001e0: 1a27 e0d3 01c0 583f 09a1 7243 56f7 3dbf
000001f0: fdf8 6544 4dc9 493f c82a 3fac aec0 5e3f
00000200: 1fd6 e504 1dad 5d3f c891 8fa1 dba1 39bf
00000210: 90c7 8621 81fc 573f fc8d a545 5c99 1f3f
00000220: a88c 3353 0dcf 593f 8130 3dcd 4106 573f
00000230: 433b 9333 8201 513f e1ff 26ed 5756 253f
00000240: e89b e712 2946 623f fa6c 7b58 32b8 333f
00000250: dbb3 28b7 3276 623f 6e92 c475 0480 5b3f
00000260: 0c16 7182 e834 503f a986 62d2 f0fe 41bf
00000270: a8ce 6f6c 7120 28bf 24ef 9526 28db 073f
00000280: e301 cfa8 798d 563f 0473 ae85 e2ec 2e3f
00000290: 5e62 bc5f 5db9 513f 95dd d007 f508 fbbe
000002a0: 84a6 1c8b 09e0 4c3f f397 7595 fdf1 4f3f
000002b0: 3178 0d65 ad73 503f fcc8 0a46 9d53 503f
000002c0: f270 a755 cdf3 513f 3259 bc74 b461 26bf
000002d0: d17a 4826 ef8a 123f cb19 01fb 2b38 0bbf
000002e0: a5fe a004 6e1a 003f 7408 5719 4939 fa3e
000002f0: a5bb 9f5d b5e3 643f 226a 8007 7ef7 593f
00000300: 05f3 4621 1612 5e3f fe6f 7041 997e 42bf
00000310: 6dcd 1617 e3ba 423f 5c6b f99e 0130 30bf
